Models/NCfModel.pth (torch, 576833 bytes, 9 tensors)

user_factors.weight f4 [1682, 20]
00000000: 7d3c 573f 7a79 adbf 16ea 5bbf e99d 783e
00000010: ca27 cabe f427 273f da1f 92bf ffbb 833f
00000020: 0c80 8f3e 1547 91bf 29a7 ca3f dfdf 0dc0
00000030: a7f1 ba3f d275 e23d 762c b9be 8462 2bbf
00000040: b0bb 50bf 26e2 a33d 856d f5bf db42 343f
00000050: 3cc5 bebf 90be c0bf 969f 88bf 3d6d dcbf
00000060: 192b 09bd 8c5a 933f d898 e0bd 4afc 50be
00000070: c290 543f e2ce dd3f 39a2 373f 5858 b6bf
00000080: 2500 bcbd a326 243f 3cc9 18bf 1422 0cc0
00000090: b73b a63f feca 9c3f 3bf5 1fc0 f28c ba3f
000000a0: 50d7 b33f cc59 eebf 25cf a73f 243b a83f
000000b0: 41a3 f73e d1c4 3ebf b3be 783f 5be6 1ebe
000000c0: c15f 5bbf d76c 233f a8d8 02bf ca60 6bbf
000000d0: 8c30 76bd 46d5 db3f 9469 90bd 836a 893d
000000e0: 9a3d 41bf 0038 3a3e c8e0 4a3f 8f4c c8bf
000000f0: 5472 343f 1711 95bf 2967 ea3e 97b2 0a3e
00000100: 0f72 63bf 9e83 f13e 317d 9abe 2106 70bf
00000110: e148 bdbf 1fd3 6cbe 3458 29bf c3e9 51bf
00000120: 259a e53e 09a9 a03e 0406 59bf b4f7 7fbe
00000130: 82c8 ccbe 9bf1 a1bf 5fe6 f93e 7885 5fbe
00000140: ddf4 433e 286a c6be 637c 50bf 3a4e 813f
00000150: e78d f13e 5716 ae3f 00c2 8abf 0ffc a43f
00000160: 7c04 e3be ed21 e23e 2be3 323f af10 223f
00000170: fdff cb3e 8878 1e3e e3a9 8f3f 6eb8 0b40
00000180: 1334 8b3f 48cd bf3d 0326 3bbf 6b1d 093d
00000190: e3de 06bf 0fa0 a8bf e295 3dbe 0178 d0be
000001a0: d720 c1bf 6da8 0bbf 01e3 69bf 4ef7 753f
000001b0: 7ff5 3abe f2a9 8f3f 3bce ce3f 59f4 96bd
000001c0: 9d24 d9be 0e7a d73f 8346 1bc0 416f d9bd
000001d0: 11a4 b4be 2d8a 953f dc7a 313e 0bbe 2bbf
000001e0: 3322 e63e 64e8 ffbe affc 683f 15cc ebbe
000001f0: 5e9e 09be c32f bfbe 3e4c a43f 3ce8 95bf
00000200: 3c5b 613f 80ae 073f 5e87 05bf f924 b73f
00000210: 28b3 4c3e daab 0840 bee2 033f 1e22 0f3c
00000220: 71f7 933f 86bc ddbe 8345 473f 6452 883f
00000230: 7e18 23c0 8c59 e53f 8c06 33bf 78ae 9b3f
00000240: a2e9 893f 682d a8bd 5c64 b8bf d645 dc3e
00000250: 4e73 58bf 5f78 64bc 9c81 bbbd b1e4 a83f
00000260: afef 8ebf e1c6 26be 1626 343f 9c24 2740
00000270: b08b 1ebf 7eb8 803f cac2 9cbf acdf 813c
00000280: 686a a1be 181c b13e e148 253f 31ff 8abf
00000290: 0a19 39bf d162 dd3f ef70 6ebe 17a1 693f
000002a0: 661f 4cbf 3f08 893e 5ba8 aebf cf98 b43e
000002b0: 1503 283f a402 f43f 21bb a1be a05e 1d3f
000002c0: 24c1 7f3f ae6a 71be c40d 84bf ea62 6c3f
000002d0: 68f4 1c40 7fb7 89bf 6e5d 693f a80d 903f
000002e0: fa53 b03f 65c2 f8be 4eb7 363c 2fce 2bbf
000002f0: e504 233f 763e b5bc 6f68 6b3f 8e1d 143f
00000300: 7d77 a13e a6f4 eb3e a2e1 913d 717f 0940
00000310: 1397 233f 25df c0bf ae96 6bbf 1518 9b3f
00000320: a4dd 5a3e 76ed fabe 3b4a febe 7a30 21bf
00000330: 52a6 f3bf 8cdc 33bf 3096 063f e8e8 3040
00000340: ce37 ce3f 0230 12bf a0ee 6a3f 588f 7e3d
00000350: ea0a 303f c6a7 0a40 dcf5 d53e 1891 92bf
00000360: 783a aabe 8af9 5f3f c78e b43f 02a8 3dbe
00000370: f7ea 24be e5e3 1abf 0d8d 6fbf 9599 6c3f
00000380: 0773 a9bf 7ad3 843f a6c3 a8bf 6f09 35bf
00000390: 156e 24c0 99cf 0fbf b7de cbbf e2ae 9e3f
000003a0: 7bba 6cbf 23bb f9be ddae 823e ca89 02bf
000003b0: 5d1b a13e e9f6 1abf afc4 e2bf 790f d9bd
000003c0: 88ec 123f a1aa 8d3f 1324 243e 6c78 b33f
000003d0: 8d31 fabd 199c 7f3e 3d6a 6fbf 0c49 93bf
000003e0: f940 98bf 277b 81be 789b 0f3f 1aa2 2e3f
000003f0: b0dc e7bf 8512 3a3f 1f67 743f 3bfa 963d
0.8407667 -1.3552697 -0.8590406 0.24278988 -0.39483482 0.6529534 -1.141597 1.0291747
0.2802738 -1.1349818 1.5832263 -2.216789 1.4604996 0.11057629 -0.36166734 -0.669472
-0.8153639 0.08002119 -1.9174048 0.70414513 -1.4903941 -1.5058155 -1.0673702 -1.7220837
-0.033488367 1.1512008 -0.10966653 -0.2040874 0.8303338 1.7328761 0.7173191 -1.424571
-0.09179715 0.64121455 -0.5968206 -2.18958 1.2986974 1.2249448 -2.4993427 1.4574263
1.4050083 -1.8621154 1.311009 1.3143048 0.4836674 -0.7451907 0.97165984 -0.15517561
-0.85692984 0.6383795 -0.5111184 -0.91944563 -0.06010489 1.7174461 -0.070513874 0.067097686
-0.7548462 0.18185425 0.7924924 -1.5648364 0.7048695 -1.164584 0.4578183 0.13544689
-0.88845915 0.47170728 -0.30173638 -0.9375935 -1.4787866 -0.23127411 -0.6615021 -0.8199732
0.44844165 0.31378964 -0.84774804 -0.24996835 -0.39996725 -1.2651857 0.48808572 -0.21828258
0.19136377 -0.38752866 -0.814398 1.0101998 0.47178575 1.3600568 -1.0840454 1.2889422
-0.4433936 0.44166508 0.6987788 0.6330671 0.3984374 0.15475667 1.122372 2.1831317
1.0875267 0.09365326 -0.73104876 0.03347532 -0.5268385 -1.3173846 -0.18514207 -0.40716556
-1.5088147 -0.5455387 -0.91362005 0.9608048 -0.18257712 1.1223738 1.6156687 -0.07370824
-0.42410746 1.6834123 -2.4261787 -0.10616923 -0.35281423 1.1682793 0.17332023 -0.6708686
0.44947967 -0.49981987 0.91010565 -0.4605414 -0.13439319 -0.37341127 1.2835767 -1.1711497
0.8802984 0.5300064 -0.5215968 1.4308158 0.19990218 2.135489 0.51517856 0.0087361615
1.1559888 -0.43307894 0.7784044 1.0650144 -2.54837 1.7917953 -0.69931865 1.2162619
1.0774424 -0.082117856 -1.4405627 0.4302203 -0.8455094 -0.013944714 -0.091555804 1.3194791
-1.1166896 -0.16286804 0.70370615 2.6116095 -0.61931896 1.0056303 -1.2246945 0.015853725
-0.31526494 0.34591746 0.6456433 -1.0859128 -0.7230383 1.7295781 -0.23285268 0.9126143
-0.7973541 0.26764104 -1.3645128 0.35272834 0.656297 1.9063306 -0.3158808 0.6147251
0.99904084 -0.23575851 -1.0316701 0.9233843 2.4524174 -1.0759124 0.9115819 1.1254168
1.3775628 -0.4858581 0.011152102 -0.67111486 0.63679343 -0.02212451 0.9195623 0.57857597
0.31536475 0.4608509 0.07123114 2.1484034 0.63902396 -1.5068098 -0.92026794 1.2116724
0.21373612 -0.49009293 -0.49666008 -0.62964594 -1.9035132 -0.702584 0.5257292 2.7642155
1.611078 -0.57104504 0.9177036 0.062148422 0.68766654 2.16649 0.41789138 -1.1450529
-0.33247733 0.8749014 1.4106072 -0.18521121 -0.16105257 -0.6050399 -0.935746 0.9242185
-1.3238229 1.0377038 -1.3184707 -0.7071752 -2.5692189 -0.56176144 -1.5927342 1.239712
-0.92472047 -0.48775586 0.25524035 -0.509915 0.3146619 -0.60533005 -1.7716273 -0.10598654
0.5739217 1.1067697 0.16029386 1.4021125 -0.12216482 0.2496189 -0.9352148 -1.1506667
-1.1894828 -0.2528927 0.560966 0.682161 -1.8114223 0.7268451 0.9546985 0.073719464

item_factors.weight f4 [965, 20]
00000000: a853 22bf a8eb 1abf b630 03c0 52cb 0f3e
00000010: 5354 98bf f097 123f bd53 29bf 05f5 9fbf
00000020: 0f1e 263f b09f c83f 23ae f4bd 951a 2f3f
00000030: dd0a b03e 0e48 d23e 7f0b 96bf 8dcb 84be
00000040: 977d 0b3e d271 edbe 8367 1f3f 329d a63e
00000050: 57d1 883f 60f7 3940 d2b7 023f b23f 7b3f
00000060: bf3e 03bf 7726 183d 7f81 99be 8459 ddbe
00000070: 8cf6 433f bf6a 143e 3d6f 65bf 12a6 4cc0
00000080: d8d4 883f fa19 fdbe d067 d13f 0665 ddbe
00000090: fc47 7bbf 8406 bbba 853e e3bd ddac 43c0
000000a0: db2a 8bbf 85d7 94be 086a b73f 5113 adbf
000000b0: c77e 283f 234f 6d3f df1e 11c0 1ae8 f13e
000000c0: fb5d 2140 6137 f1be 0d19 0d3f 872b 0ec0
000000d0: aefa 983e c7f8 a8bd 91d9 b2be 67b1 f33e
000000e0: 6afb acbf ee16 e0bf 76f8 0540 44f0 6c3e
000000f0: 4b08 123f 5b14 cbbf 4be2 90bf 896d a33f
00000100: 65cc c5be 905b b13e 3d45 fb3f 7dd6 ac3f
00000110: b3ef fe3e 8f99 053f 5288 58bf a1d0 62bf
00000120: 5c11 933f 2438 2d3f 1c5d 6ebf 0f6b b53f
00000130: 5638 893f f7cf 573e 1f12 64bf a60f b7bf
00000140: f93d ca3d 03b9 533e 485f b2bf 2c7e a4bf
00000150: 6709 b4bd fd50 02bf 0cdd fdbe a072 86bf
00000160: 8854 9dbf 2cbb 8bbe d0d0 d7bf b61f 28bf
00000170: 089b a3bf 2740 34bf e9f8 38be 2338 7ebf
00000180: f401 66bf 2cf9 fbbe 5557 e5be 253d c43f
00000190: 38e8 16bf 9688 563e 0b55 643f 03a4 85bf
000001a0: 67f2 20bd b1ca 03bf 4c5a af3e 00e3 7ebf
000001b0: e4fe 9cbe c5cd 8b3f b517 8b3e f5b0 1740
000001c0: 5918 ab3f f56d 3abf c0bc be3f b026 64be
000001d0: 0acc 8a3f e1ee 11c0 8fe1 0abe b462 16bf
000001e0: db07 253f b8a3 173e 5052 943e 4996 c8be
000001f0: 4be9 833f 46ab 3c3f a2ae bbbf 1a7e 7a3e
00000200: af0b 67bf 3565 49bf 0528 1140 2a6c 4c3f
00000210: 67d8 883f 45d1 20be 6f62 febc 0968 8c3f
00000220: 581b 99bf 7246 393f 931d c2bf 42b1 20bf
00000230: 3558 f4bd 34ea 29be e479 0ec0 a086 603c
00000240: 5d77 193f b876 9dbf 2c53 143f 327d 51be
00000250: e39a 8ebd 8e1d 90bf 9cb1 6dbe 9841 66bf
00000260: 7b8c 7d3f c1cb 33bf fede 3fbf ec3f db3e
00000270: 075a 4fbf bb07 45bf 88b4 063f 4813 e13e
00000280: c6fa dfbf 9ed0 efbf ee39 543f 8c24 133f
00000290: 186c 17be d1cf a33f 6238 61be 8352 8dbe
000002a0: 9d62 13c0 927d 4ebe b90a 893d edc2 9e3e
000002b0: ca22 1740 67bc 6040 7d28 15bf 626a 8ebe
000002c0: 6c35 91bf c11f cfbd b29c 54bf 15b0 1a3c
000002d0: 6677 11c0 7657 843e 1d4c 19bf e3f7 a4bd
000002e0: b3e2 f7bf 4292 e9bd b59c b43f e3d4 6f3f
000002f0: 4850 93bf 9aaf 5cbe e561 0abf 138f 5ebf
00000300: 89ba a0bf 253c fcbf 111e a7be 5853 39bf
00000310: eca3 ff3e 9371 8bbe 8bc3 89bf 1cb1 62bf
00000320: 8925 1040 b64d 673f 6102 32be 4e93 703f
00000330: fca6 f13e b2ea ca3f a285 803f f70e 383f
00000340: 131e a13d 8dfe c9be 2359 bdbf b9ab 5dbf
00000350: 90e6 9cbe 7d94 ce3f 7351 233f 5d30 a13f
00000360: c60c afbf b894 eabf 6b89 5abf 7e21 74bf
00000370: f709 853f ebf1 acbf a4af c43e 2e07 cdbe
00000380: 0dd8 0e3f 6d8f a83d 3ac2 eb3e 3148 c03f
00000390: c75c e8bf b20b 9b3f cd6f 00bf 0d04 babe
000003a0: 2e0d f3bf 2075 223f 358c 3abf 9f74 fabe
000003b0: ce84 58bf f2c2 4ebf a734 87be 8080 56be
000003c0: 7f38 e23e c627 5bbf 5695 2840 c482 7cbf
000003d0: 65ac 55be 2c75 17bf 18f3 d8bf afa5 8a3f
000003e0: 916e 903f 3037 64be 7b1b 5bbd f56e 3bbf
000003f0: 8a0a 7d3f b07e b83f ec67 023d cde8 60bd
-0.634089 -0.6051583 -2.049848 0.14042404 -1.1900734 0.5726309 -0.661434 -1.2496649
0.64889616 1.5673733 -0.119472764 0.68399936 0.34383288 0.41070598 -1.1722258 -0.25936547
0.13622127 -0.463759 0.6226732 0.32541806 1.0688885 2.9057236 0.5106174 0.98144066
-0.5126762 0.037146058 -0.2998161 -0.43232358 0.76548076 0.14493845 -0.8962286 -3.1976361
1.0689955 -0.4943388 1.6359806 -0.43241137 -0.98156714 -0.001426891 -0.11095909 -3.0574257
-1.0872453 -0.29070678 1.4329233 -1.352152 0.65818447 0.9269888 -2.2675092 0.47247392
2.521361 -0.47112563 0.5511635 -2.2214067 0.29878753 -0.082505755 -0.34931615 0.47596285
-1.3514225 -1.7506998 2.0932899 0.23138529 0.57043904 -1.5865587 -1.1319059 1.2767802
-0.38632503 0.3464017 1.9630505 1.3502957 0.4979225 0.52187437 -0.8458301 -0.8859959
1.1489673 0.6766379 -0.93110824 1.4173297 1.0720317 0.21075426 -0.8909015 -1.430165
0.098751016 0.20676045 -1.3935328 -1.2851005 -0.08790856 -0.5090483 -0.49582708 -1.0503731
-1.2291422 -0.27291238 -1.68606 -0.6567339 -1.2781687 -0.7041039 -0.18063702 -0.9930441
-0.8984673 -0.4921354 -0.44793192 1.533116 -0.5894809 0.20950541 0.89192265 -1.0440677
-0.039293673 -0.5148116 0.3424858 -0.99565125 -0.30663216 1.0922171 0.27166525 2.3701756
1.3366805 -0.7282403 1.4901352 -0.22280383 1.0843518 -2.280205 -0.13562606 -0.5874436
0.6446511 0.14808547 0.2896905 -0.39177158 1.030557 0.7369884 -1.4662669 0.24462166
-0.902522 -0.78670055 2.2680676 0.79852545 1.0691041 -0.1570483 -0.031052796 1.0969249
-1.196147 0.72373116 -1.5165275 -0.62770474 -0.11930887 -0.16593248 -2.2261896 0.013703972
0.5994776 -1.2301855 0.5793941 -0.20457914 -0.06963136 -1.1259019 -0.23212284 -0.8994384
0.9904248 -0.7023278 -0.74949634 0.42822206 -0.80996746 -0.7696492 0.5261922 0.43960023
-1.7498405 -1.873554 0.82900894 0.5747764 -0.14787328 1.2797796 -0.21994165 -0.27602014
-2.3028939 -0.20165089 0.06691498 0.31008092 2.3614984 3.5114992 -0.58264905 -0.2781554
-1.1344428 -0.101134785 -0.830516 0.009441395 -2.2729125 0.25847977 -0.59881765 -0.08055093
-1.9366058 -0.114048496 1.4110323 0.93684214 -1.1508875 -0.21551362 -0.54055625 -0.86937064
-1.2556926 -1.9705855 -0.32640126 -0.723928 0.4992975 -0.27235088 -1.07628 -0.885515
2.252291 0.9035295 -0.1738372 0.9397477 0.4719771 1.5852873 1.0040781 0.71897835
0.07867064 -0.3945202 -1.4792827 -0.8659015 -0.30644655 1.6139065 0.63796157 1.2592884
-1.3675773 -1.8326635 -0.85365933 -0.95363605 1.0393666 -1.3511328 0.38415253 -0.4004454
0.5579842 0.08230481 0.4604662 1.5022031 -1.8153313 1.2112944 -0.50170594 -0.36331216
-1.8988397 0.6345997 -0.7287019 -0.489171 -0.84577644 -0.8076621 -0.26407358 -0.20947456
0.44183728 -0.85607564 2.6341147 -0.9863703 -0.20866545 -0.59163165 -1.6949186 1.0831813
1.1283742 -0.22286677 -0.053493004 -0.7321618 0.98844206 1.4413662 0.03183739 -0.054909516

conv2.weight f4 [16, 1, 1, 1]
00000000: 6451 fc3e 17a2 d7be d605 e5bf 4ed2 ddbf
00000010: 14ad 4c40 9a2e 853f 8982 e73f f554 3740
00000020: 0dd8 d3bf 90ab 83bd a275 5e3f f5c7 d13e
00000030: 2d27 6cc0 cf8e ecbf 565f 16c0 124c db3f
0.49280846 -0.42115852 -1.7892406 -1.7329805 3.1980639 1.0404847 1.8086711 2.8645604
-1.6550308 -0.06429207 0.86898243 0.40972868 -3.689891 -1.8481082 -2.3495688 1.713259

conv2.bias f4 [16]
00000000: 5cbc ad3e c375 813c 5b7a 9dbd 5e7e cfbe
00000010: 1b77 cdbd d643 263f c40f 43bd 629e aebd
00000020: f4e9 a1bd 7e03 0cbf b0fd 5dbf 548a d0bc
00000030: e20c 2cbe 04ff 043e 0b72 a4bd 94c2 8f3f
0.3393277 0.015803223 -0.07689353 -0.40526098 -0.10032483 0.6494726 -0.047622457 -0.08526303
-0.07905951 -0.5469283 -0.8671522 -0.025456585 -0.1680179 0.12987906 -0.080295645 1.1231256

fc1.weight f4 [128, 640]
00000000: 19c5 f2bb 3851 f6bc 1e8d 88bb 50d6 9abc
00000010: 24bb e4bc 5d9d df3c b403 13bc bfaf e0bc
00000020: f671 a7bc e53b c3bb a155 d6bb 17b5 0dbd
00000030: f649 84bc 5f53 dbbc 72ee 36bd 00e4 5dbd
00000040: 9939 ee3a 864d c93a 85c1 9939 6fb7 c5bc
00000050: 1194 253d 5eaa 443c f0fc c33c 2df7 afbc
00000060: b4b3 54bc ce76 543b e208 b2bb 8dda 18ba
00000070: 5925 46bc 24f3 00bd 48d5 03bd 8362 98bc
00000080: 8593 b23c 3dce 78bc 7857 fcbc e665 5cba
00000090: 986d 4c3c b28e c1bc f0c4 24bd 1855 dc3c
000000a0: a84e 083c 5e69 7d3c 0c17 81bc 928b d9bd
000000b0: 7314 ebbc bd59 883c 5662 843c b342 af3c
000000c0: 135e a03c 1d0d d8bc 5b7f a23b a41b cf3c
000000d0: 606f f6bc 4ad6 3cbd 89f9 953b 1581 5c3d
000000e0: 870e 82bd b350 603c 97e8 1bbd 4d94 2ebd
000000f0: 3a85 de3b 0d7f f7bc 396a bfbd 7509 d6bd
00000100: ab7e 9dbd e347 cc3b 8bad 86bc 67ec 763c
00000110: 66b0 013a 427f 0abd f90d e43c cab3 3b3c
00000120: 0c92 e4bb 2542 6abd 0bed 52bd 51a6 c73c
00000130: 89d1 56bc 0eca 293c c5be 26bd dda7 0bbd
00000140: 843f b1bd ea65 7e3d 3911 ccbc 348a d43c
00000150: d178 7abd 9a58 043c 86d8 093c 413a 4f3d
00000160: ea07 94bc 1d0b 8dbb b3ae 5a3d f233 063d
00000170: c736 173d 9ec3 0f3d a379 463c d52c 11bd
00000180: 0951 aa3c c3bc 97bc c60b c339 a109 8ebc
00000190: e1c6 03bd 2500 18bb a1f0 52bc fbe1 b33c
000001a0: 66d2 d63b d091 ee3c 3d92 803b b00a 0f3b
000001b0: 4b5e 20bd 5fb1 b73c 576b 0b3d 2de1 0f3d
000001c0: c4ad 273d 12b1 62bc 63b1 f8b9 5a85 55bd
000001d0: 8534 32bb 69b1 47bc 1721 24bd 5e86 adbb
000001e0: 39da 61bd c403 bb3c 80c6 76bc a93f 8b3c
000001f0: 3a18 02bd 544f 793d 4a08 9bba a29f 1a3d
00000200: b57b 063c 7521 f23c 095a fb3b 7dfd 7d3c
00000210: 2d6c 823b de3c 773d 69c7 523b 4cec 91bb
00000220: 210a ae3c e461 92bb 9a19 8a3c 7a7b 5abc
00000230: cb3f 00bd 1590 483d d3e2 f13c 693e b13c
00000240: dcd1 b6bc af2d f53c 8da1 883c 23fb 233d
00000250: 8891 513d 7989 a4bc cf21 223c 87c2 183d
00000260: eb32 e73c 33ad 963c 9adf 2e3d 23cd b1bc
00000270: f0eb 64bc dbd3 0f3d 8cbe e6bb 8f43 76bb
00000280: 76dc b6bc 2238 67bc cda4 eabc 0233 85bd
00000290: 4353 4cbd 75ba cebc 6c85 7e3c 8361 bb38
000002a0: 6462 adbc b4e8 50bd 2c7e f03c f6de 41bc
000002b0: 899a 763c 04de ab3b 3b3c 48bc d164 873d
000002c0: 57ed 99bc f925 1f3c 795c debc 8a6d 6abb
000002d0: 428e 77bc 5166 e73a 1731 0dbd af01 e7bc
000002e0: bc7b 14bd 7efe 56ba b8e5 17bd 5a10 1a3d
000002f0: a3ea 10bd 8597 87bc 5444 983b 1da5 12bd
00000300: e8e6 a6bc 731a c5bb b1a4 cfbc 98a7 ca3c
00000310: 7992 a4bc aab9 debc 6d15 65bc ef3b b93b
00000320: 9a15 b33c 78af 3b3d 7b7b 483c 7748 353d
00000330: 793d c23c d29c 38bb 0650 ae3c ebe0 233c
00000340: dd32 173c 2a34 0c3d c266 1d3b 683d f53c
00000350: 7e1b 0f3d 77d4 353c 280e 283d 164a 10bc
00000360: 3f50 c73c ca01 a8bc f630 a6bb 5df1 44bd
00000370: 788f f33c 17d3 823b 6047 9dbc 098d a93c
00000380: 8624 cebc fe57 d73c 3e9d 113d cdf1 003d
00000390: 7861 d83c e02b 123d bfea f33c ea37 a2bc
000003a0: b137 0d3d 6155 ffbc abba 6f3c 52e2 643c
000003b0: e96b c83c 908f 0abb 23df 4e3b 77fb dabc
000003c0: 4e67 99bc da8f 403a afc9 00be c599 f6bd
000003d0: b177 80bd e653 6abc a2d4 3c3d 75a7 0d3d
000003e0: f0e8 ef3c 9fee 14bd cd18 48bc 9145 d23b
000003f0: 1bf7 8cbd 50d7 e6bc 6144 fe3a 00a8 dd3d
-0.00740875 -0.030068025 -0.004167213 -0.01890102 -0.027921267 0.027296716 -0.008973051 -0.027427552
-0.020440083 -0.0059580677 -0.0065409695 -0.03459653 -0.016148549 -0.026773153 -0.044660993 -0.054172516
0.0018175124 0.0015358187 0.00029326617 -0.02413532 0.04042441 0.012003509 0.023924321 -0.021480167
-0.012982298 0.0032419446 -0.005433188 -0.00058309064 -0.012093865 -0.031481877 -0.032185823 -0.018601662
0.021798858 -0.01518589 -0.030803427 -0.0008407518 0.012477301 -0.023627613 -0.040226877 0.026896045
0.008319534 0.015467016 -0.01575806 -0.10622324 -0.028696274 0.016644353 0.016160171 0.02139411
0.019576108 -0.02637344 0.0049590296 0.025281735 -0.030082405 -0.0461028 0.004576866 0.05383404
-0.06350427 0.013691115 -0.03806361 -0.0426219 0.006790784 -0.03021195 -0.09346432 -0.104510225
-0.076901756 0.0062341555 -0.016440174 0.015071011 0.0004947245 -0.03381277 0.027838694 0.011456439
-0.006975418 -0.057191987 -0.051495593 0.024371298 -0.0131114805 0.010363115 -0.040709276 -0.034095634
-0.08654693 0.06210891 -0.024910556 0.025944807 -0.061150376 0.008077765 0.00841344 0.050592665
-0.01807018 -0.0043043033 0.053389262 0.032764383 0.036917474 0.035098664 0.012113961 -0.035443146
0.020790594 -0.018522626 0.0003720207 -0.017338576 -0.032172088 -0.0023193446 -0.012874753 0.021958342
0.006555843 0.029122263 0.003923683 0.0021826439 -0.039152425 0.022423444 0.034037914 0.035126854
0.0409372 -0.013836162 -0.0004743441 -0.052129127 -0.0027191949 -0.012188294 -0.04007062 -0.005295559
-0.055139754 0.022828944 -0.0150619745 0.016998129 -0.031761386 0.06086667 -0.0011828032 0.037749894
0.008208205 0.02955697 0.007670645 0.015502331 0.0039801807 0.06036078 0.0032162315 -0.0044532176
0.021245064 -0.004467236 0.01685791 -0.013335103 -0.031310838 0.048965532 0.029527104 0.021636205
-0.022316866 0.02992901 0.016678596 0.040034425 0.05116418 -0.020085083 0.009895756 0.03729489
0.028222522 0.018393135 0.04269371 -0.021704262 -0.0139722675 0.03511415 -0.007041758 -0.003757689
-0.02232192 -0.014112504 -0.028643036 -0.065038696 -0.049884092 -0.025235394 0.01553474 8.935018e-05
-0.02116508 -0.051003173 0.029357038 -0.011832943 0.0150514925 0.005244972 -0.012221391 0.06611026
-0.01878993 0.009713643 -0.027143704 -0.0035770857 -0.0151096005 0.0017654394 -0.034470644 -0.028199045
-0.036250815 -0.00082013744 -0.03708431 0.03761325 -0.035380017 -0.016551742 0.004646817 -0.035801996
-0.020373777 -0.006015116 -0.025347086 0.024738118 -0.020089375 -0.02718814 -0.013982159 0.0056528966
0.021860886 0.045821637 0.012236471 0.04425856 0.023710953 -0.0028169644 0.021278393 0.010002355
0.009228435 0.034229435 0.0024017547 0.029936507 0.034938328 0.011098019 0.041029125 -0.008806726
0.024330257 -0.020508666 -0.0050717546 -0.048081744 0.029731497 0.003992449 -0.019199073 0.020697134
-0.0251639 0.026287075 0.03555035 0.0314806 0.026413664 0.035686374 0.029775022 -0.019802053
0.03447694 -0.031168642 0.014631907 0.013969975 0.024465518 -0.0021142699 0.0031566105 -0.026731236
-0.018726017 0.00073456543 -0.12576936 -0.12041048 -0.06272829 -0.0143022295 0.04610122 0.034583528
0.029285878 -0.03636038 -0.012212944 0.0064169844 -0.06883069 -0.02817884 0.0019399041 0.10823059

fc1.bias f4 [128]
00000000: 75a2 9fbd 441c 7bbd 1477 953d 931a 1dbe
00000010: a0a5 543c c194 48bd 6a5f 113a c8b9 bbbd
00000020: 072c babc 7ae0 b5bc 0a1b 0dbd 48bb e23d
00000030: 50e1 b03d 5632 30be ece6 69bd f745 b93b
00000040: 6db8 cfbc 377f bc3c 8360 733c 595f d33c
00000050: 24db fabb 918c 35bd f085 203c e581 dabc
00000060: c387 70bd b833 1abe 9d65 2fbe 3ebe b03c
00000070: 74f9 47be cc1b 84bc b3f5 163d a440 c93a
00000080: 2d89 9b3d 3892 7c3c 038d 543b d298 a53a
00000090: ece5 213d 6b06 9fbc 55d9 6bba 6249 a43d
000000a0: a5d9 163c a04c a6bd cd0b b63c 7da9 b3bc
000000b0: c58b 65bd b000 d6bd 782a dd3c c430 cc3b
000000c0: 4527 49be 18fd 2b3d 2bea 0fbe b789 80bd
000000d0: eab1 893c 071f f9bb 05e4 e1bc 3ee1 11bd
000000e0: d86d bd3c b1ab 43bd 34df d3bd 2c30 6a3c
000000f0: 7151 0ebe d6dc 403d 391a a83a b627 98bc
00000100: 4914 b7bc a697 fabc 1b76 3abd 9506 99bd
00000110: f7f6 56bc 4239 a0bc 5c3d 5fbc 8085 d43c
00000120: e171 d4bc 13bd 14be 02bc 73bc f72c c1bd
00000130: 0c61 243c bca5 afbd 7d00 83bc ff01 ddba
00000140: df9a ccbc 1f4a 78bd 81db f63c e20f 36bd
00000150: b854 80bb 2659 d2bd 6fe0 073d 8ec2 97bd
00000160: 9579 e9bc 97a8 2fbd ad43 3bbd 7b4c a9bd
00000170: 28fe 99bc 52fc c5bc 5b55 72bc 9e7c 8fbb
00000180: 3428 753d 2524 153d 66b0 23bd 9160 0738
00000190: 65df 8fbb 13a6 c03d 2d0f e2bd a0ce f239
000001a0: bafc c43c 08f2 78bc 2e32 4e3b d94d a0bc
000001b0: a0af ccbd 9d09 763c 40f2 e0bb a496 1b3d
000001c0: b5f3 243d fbfb 1cbe d452 bebc 2829 a83c
000001d0: ccd9 f3bc fd31 0fbd b50e c4bc 40e8 d73c
000001e0: fde7 883d 01a8 b1bc 62f1 db3c bc35 7d3c
000001f0: ca3c 15bd 7cd3 9fbc dc7f dcbc 37cb 7cbb
-0.07794658 -0.061306253 0.07298103 -0.15342169 0.012978941 -0.048969988 0.0005545529 -0.09166294
-0.022726072 -0.022201765 -0.034449615 0.11070877 0.08636725 -0.17206702 -0.05710499 0.0056540924
-0.025356496 0.02300988 0.014854553 0.025802301 -0.007655518 -0.044323508 0.009797558 -0.026673267
-0.058723222 -0.15058792 -0.17128606 0.02157509 -0.19528753 -0.016126536 0.03685541 0.0015354347
0.075945236 0.015415721 0.0032432682 0.0012634045 0.03952591 -0.01941224 -0.00089969236 0.08021809
0.009207164 -0.08120084 0.022222424 -0.021931404 -0.056041498 -0.1044935 0.02699779 0.0062313993
-0.19643886 0.041989416 -0.14054172 -0.06276267 0.016808469 -0.0076025757 -0.027574548 -0.0356152
0.023123667 -0.04777116 -0.10345307 0.014293712 -0.13898255 0.047085606 0.0012825198 -0.018573623
-0.02234854 -0.03058989 -0.04552279 -0.074719585 -0.013120404 -0.019558553 -0.013625469 0.025942564
-0.025933208 -0.14525251 -0.0148763675 -0.094324045 0.010032903 -0.08576533 -0.015991444 -0.0016861557
-0.024976192 -0.060617562 0.030133964 -0.04444874 -0.0039163493 -0.1027091 0.03317302 -0.07410155
-0.028500358 -0.04288539 -0.045718838 -0.082665406 -0.018797949 -0.024168167 -0.014790858 -0.004378869
0.059852794 0.036411423 -0.03996315 3.2276443e-05 -0.0043906444 0.09406676 -0.11038051 0.00046311785
0.02404629 -0.0151944235 0.0031463015 -0.01956837 -0.09994435 0.01501694 -0.006864816 0.03798546
0.04027148 -0.15330498 -0.023232855 0.020527437 -0.02976694 -0.034959782 -0.023932794 0.026355863
0.06684873 -0.021686556 0.026848499 0.015454706 -0.036434926 -0.019510023 -0.026916437 -0.0038573274

fc2.weight f4 [64, 128]
00000000: 6e22 813c 459f 823d 7b09 a4bd 7798 d93b
00000010: f8be 16bc 9a0d 8fbb 4fae 343d 66f9 b13d
00000020: e56c 71bc d7ff d8bc b7aa abbd f555 42bc
00000030: b3a1 d3ba dd37 443d 4d9b 80bd f4be 4a3d
00000040: d3c8 073d 0906 e73c 19f5 263d 65f9 e33c
00000050: 10eb 73bd 602b 79bd cf5c 073c 922f c4bb
00000060: 874f 473b d960 aebb 6927 2b3d fd25 77bd
00000070: 728c 73bd 754c ab3d 66d7 bdbb 8bd5 ba3c
00000080: 1a84 a83d c7e8 a5bd 1e8d 0d3d 983a 9c3d
00000090: f7c4 5cbd 2d50 823d e60f 43bd 29e5 02bd
000000a0: 9032 80bd 9b95 94bd f9bd b43d d38f 46bd
000000b0: 27a4 223d f2c3 62bd 07ab d1bb 5077 343d
000000c0: dc45 f9bb 29d3 97bd 9a68 86bd ec0d a3bc
000000d0: 2a61 fc3c 794a 813d 4b76 6cbc 8ee1 6fbd
000000e0: 0a6a 1a3c 6bf9 62bd 44bc 4539 b6f1 7abd
000000f0: 0f42 2a3d 0ecd a5bd 68cd 0abd 2d04 e5bc
00000100: c252 8e3d 2c1f ad3d 519e 9d3d bdfc 893d
00000110: ae1d abbb 1643 853d dddd 9c3d 5bca 573d
00000120: d5d2 a6bd ae05 af3d 6682 a3bd e71f 9ebd
00000130: dfa2 a9bc 71c9 043c 8196 403c 03c9 94bd
00000140: f105 8cbd 67af f0bc a69c 743d 2ab8 57bd
00000150: c92a a7bd ccc4 82bc 543d a23c f087 973b
00000160: 8fa7 a2bd 01dc 233d b25b 9dbb 8cca 9bbd
00000170: 5009 743d e152 193d 3dd8 9dbd 77af 29bd
00000180: 1615 aabb 0b52 99bd d045 a53d b0c5 8cbd
00000190: 06d5 993d 7ec0 4f39 d8f7 563d e1c5 0ebb
000001a0: 4e43 acbd 94e0 9a3d 5a21 863d d8c9 7bbd
000001b0: d316 023d cfd9 e5bc aea4 93bd 2e26 49bd
000001c0: e894 803b ea79 b93c b07e 733d eda6 7d3d
000001d0: 9ea0 503c 4c38 74bd 4113 a63d dd3e 083c
000001e0: ce3c a03d 9f86 b5bd 72c1 0e3d 51bc 353d
000001f0: 6263 77b9 09f2 30bd bbf8 373c 7979 8d3d
00000200: 506d 363d 12a0 7abd 5ba2 abbd 2f10 a83c
00000210: 9a95 413d f667 ed3b a728 90bd 2621 b5bb
00000220: e756 8abc 28ac 413d 5758 2d3c e7e0 1e3d
00000230: 1dcf fe3c 9cbd 3f3d 22a6 8fbd bbcd 7ebc
00000240: a1ec af3d deb0 0c3d 8f7f 2bbd 4c57 933d
00000250: 7c97 23bc 9b24 8bbd ef3e 553d 8c20 ddbc
00000260: 1dd3 f3bc eccb dfbc 7e30 b83c b935 2f3d
00000270: e859 86bd 5bf1 10bd 1765 513d ee51 263d
00000280: f327 a83d c428 77bd 9fe5 00bd e359 103d
00000290: f249 93bc 5fca a0bd 399b 093d ccfc b8bd
000002a0: 6da8 873d 3d2f 3c3d c642 08bd 3099 b5bd
000002b0: 8608 2fbc 960d 9b3d a30a dcbb 4a5b 893d
000002c0: bf2f 7b3d 43b7 89bd cc37 93bd 55f2 ec3b
000002d0: cd83 a3bd c648 93bd 80bf b0bd 5626 3fbd
000002e0: c31d 61bd 0120 a4bd 8e64 a5bc 9246 12bd
000002f0: fe39 be3c 132d 633d 3d57 383c 12cc 843d
00000300: 48be cc3c 2a95 18bd ecf1 993b 61c4 32bd
00000310: a6f7 463d dc16 dbbc 1aa6 643d 9883 6bbd
00000320: b132 3fbc 0d4f cbbd f231 75bd fb2e 8838
00000330: fb99 c33c 505a 3a3c f19f 42bc 49e5 553c
00000340: 7edf 1f3d b3c2 dc3b 4070 0ebd 7444 2a3d
00000350: 11ef ccbc f659 43bb 2970 09bd c1a3 0f3c
00000360: 0ae2 95bd 602c 14bc 48f9 543b f92c cc3b
00000370: bbce 2c3d 2941 483c e6d2 633d 5b28 81bd
00000380: 1075 31bd d78d 973d a17c 833d 5372 bf39
00000390: 39fa 67bc 7cbe 2e3c b9d2 ee3a af64 213d
000003a0: 14bc 5abd 163c 69bc 9f34 a9bd 3e70 37bd
000003b0: d28b 26bd d95e 853d 6bb6 58bc 0050 48bc
000003c0: 6183 453d d807 c63c 46f2 a33d 17f4 443c
000003d0: 052c a3bd 8346 8d3d 5934 843d 0508 72bd
000003e0: 5357 34bd 20b7 703d d909 5abd 7751 5bbd
000003f0: 3d46 883d 13f5 4d3d 168c a33d b03b 57bd
0.015763488 0.063780345 -0.08009621 0.0066404897 -0.009200804 -0.004365635 0.044111546 0.08690147
-0.014735435 -0.026489181 -0.08382171 -0.011861314 -0.0016146213 0.047904838 -0.06279621 0.049498513
0.033150505 0.02820112 0.040761087 0.027828882 -0.059550345 -0.06083238 0.008261873 -0.005987116
0.0030412392 -0.0053216037 0.04178563 -0.060338963 -0.05946011 0.083641924 -0.0057934998 0.022806903
0.082283214 -0.081010394 0.034558408 0.07628363 -0.053898778 0.063629486 -0.047622584 -0.031956825
-0.06259644 -0.072550975 0.08825297 -0.048477005 0.03970733 -0.05536265 -0.006398562 0.044059098
-0.007607205 -0.074133225 -0.0656292 -0.0199041 0.03080805 0.06313033 -0.0144325 -0.058564715
0.009424696 -0.055413645 0.00018857518 -0.06126567 0.041566905 -0.08095752 -0.033887297 -0.027956093
0.069493786 0.08453211 0.07696212 0.06737659 -0.005222044 0.06506936 0.076595046 0.052683216
-0.08145682 0.08546005 -0.07983856 -0.07720929 -0.020707546 0.008104668 0.011754633 -0.072649024
-0.06837071 -0.029380513 0.059719704 -0.052665867 -0.081624575 -0.01596298 0.019804634 0.0046243593
-0.079421155 0.040004734 -0.0048021907 -0.07606992 0.059579194 0.037432555 -0.0770726 -0.041427102
-0.005190502 -0.074863516 0.08069956 -0.068736434 0.07511334 0.00019812767 0.052482456 -0.0021785425
-0.08411275 0.07562366 0.0654933 -0.06147179 0.031760048 -0.02805796 -0.072091445 -0.049108677
0.003924001 0.022641141 0.05944699 0.06192677 0.012733607 -0.059624 0.08109141 0.008315769
0.078240976 -0.088635676 0.034852453 0.044369046 -0.00023592779 -0.043199573 0.011228736 0.06907935
0.044537842 -0.06118781 -0.08380576 0.02051553 0.04726181 0.007245059 -0.07039004 -0.0055276332
-0.016887141 0.04728332 0.010580144 0.038788702 0.031104619 0.046811685 -0.07014109 -0.01555198
0.08590055 0.03434836 -0.041869696 0.07194385 -0.009984847 -0.06794091 0.05206197 -0.026993059
-0.029763753 -0.027318917 0.02248406 0.042775843 -0.06560117 -0.035386425 0.051121797 0.040605478
0.08210745 -0.06034161 -0.031468984 0.035241973 -0.017979596 -0.07851099 0.033595297 -0.09032592
0.066239215 0.045943487 -0.033266805 -0.08867109 -0.0106831845 0.07570951 -0.006715135 0.06706865
0.06132483 -0.067244075 -0.07188377 0.0072310367 -0.079841234 -0.07191615 -0.08630276 -0.04666742
-0.054960024 -0.08013917 -0.02018955 -0.035711832 0.023221012 0.055462908 0.011251268 0.06484236
0.024993077 -0.03725163 0.004698029 -0.043644313 0.04857602 -0.026744299 0.05582247 -0.057498544
-0.011669801 -0.09927187 -0.059862085 6.493736e-05 0.023877135 0.011374071 -0.011878953 0.013055154
0.039031498 0.006737077 -0.03477502 0.04156919 -0.02501634 -0.002980826 -0.03355423 0.008767069
-0.07318504 -0.009043783 0.0032497216 0.006230947 0.04218934 0.012222567 0.05562105 -0.06306525
-0.04332453 0.07400101 0.064202555 0.00036515537 -0.014158779 0.010665532 0.0018220759 0.03940266
-0.05340202 -0.014235517 -0.0826199 -0.044784777 -0.040660687 0.065122314 -0.013227086 -0.012226105
0.048220996 0.024173662 0.08005194 0.012021086 -0.079673804 0.06898215 0.06455297 -0.05908968
-0.04402859 0.05876839 -0.053232048 -0.053544488 0.06654022 0.05028255 0.07985704 -0.052547157

fc2.bias f4 [64]
00000000: c139 58bd 9802 10bd bfb3 7f3d 2aa5 8bbd
00000010: ef64 a7bd 0059 b43c 2c27 18bd fe66 1d3d
00000020: 6554 473d ee5f 113d 0847 be3d e97d b33c
00000030: 0f51 dc3d a4bf 6b3d 15a7 0b3d d309 203c
00000040: 12eb 9bbd 92ea 9e3d f8ad 7a3c 7c1c 9dbc
00000050: 6b30 a73d 3def 953d 4aeb 84bc 1715 b73d
00000060: 089d 7aba 9353 93bc 29dd 433d 2ddb 5abd
00000070: 09c8 97bc 2177 5dbc f4f4 81bd 2cb0 973d
00000080: e956 2bbc 08d4 c7bc ac28 b13d d84c 633d
00000090: 61b9 533d 6da1 2ebd 21ef f03d 70e5 003e
000000a0: 006e bc3d 1f32 61bc 9814 153d 2f99 91bd
000000b0: b168 54bd 4edc 543a 5f18 abbc 2308 5239
000000c0: 6d34 afbc f76c 66bd 9b1a e1bc d69b 983d
000000d0: 656e 80bc daf4 70bd d170 98bd 5c91 af3d
000000e0: baf2 b7bc ea04 103b e09c 0cba 4c0b 243d
000000f0: 5abf 5c3d c846 043e 466b 563d a8fb 813d
-0.052789453 -0.035158724 0.06242728 -0.06818612 -0.081735484 0.022015095 -0.037146732 0.0384283
0.04866447 0.035491876 0.09290892 0.021910625 0.10757648 0.05755581 0.03409489 0.009767967
-0.076131955 0.077595845 0.015300266 -0.019178621 0.08163532 0.07321022 -0.016225476 0.089395694
-0.00095601426 -0.017984187 0.047818337 -0.05343168 -0.018528001 -0.013517172 -0.06345549 0.07406649
-0.010457733 -0.024393097 0.08650336 0.055493206 0.051690463 -0.042634416 0.1176436 0.12587523
0.09200668 -0.01374486 0.036396593 -0.071092956 -0.051857654 0.0008119986 -0.020885644 0.00020030192
-0.021387303 -0.05625626 -0.027478507 0.07451598 -0.01567764 -0.05882726 -0.07443393 0.08572647
-0.022454608 0.0021975585 -0.00053639524 0.040049836 0.053893425 0.12917626 0.052348398 0.06346828

fc3.weight f4 [1, 64]
00000000: a016 efbd 61f4 92bd f773 ef3e f006 6c3e
00000010: 6f81 ecbd 885d 723e c74a 073f 5939 503d
00000020: feb0 eebc 1746 523f ad62 1c3f 3c98 83bd
00000030: ff9d ef3e 185b c0bd 8f58 0abd 6b46 843f
00000040: e7d9 73bd fc25 02bc 8293 01bc c02f 93bb
00000050: 691e 913d f565 f1bd 6394 333e 41ee 883f
00000060: 6b00 183c 0cac 8dbd 25d2 16bd c0ba 973e
00000070: 55e9 2aba fa50 a8bd 3a4a 1d3e f613 3ebc
00000080: 6dd5 613f e86b 5ebd 276f 6e3e b313 0d3e
00000090: 76ed e13e 201f c5bd b818 7c3f c756 4c3f
000000a0: a867 a43f 661f b7bd 6ce1 49bd e969 20bd
000000b0: 833b a83d 4025 533f e169 633e bd44 a13d
000000c0: cb23 643c b139 3a3e ffab 7cbd 1c72 c3ba
000000d0: 81d0 133f 2cea 66bc d7ae a83e 2c2d 963f
000000e0: 13e7 203f 2d71 bc3f b4ea 2a3d 77a6 54bd
000000f0: 722b 0c3e 9090 803f d4db 04bd 500b a1bd
-0.11674237 -0.07175518 0.46768162 0.23049521 -0.11548125 0.23668492 0.52848476 0.05083594
-0.02913713 0.821382 0.6108807 -0.06425521 0.4680023 -0.09392375 -0.033775862 1.033399
-0.05953398 -0.0079436265 -0.007908704 -0.004491776 0.070858784 -0.11787025 0.17537074 1.0697709
0.009277443 -0.06917581 -0.036821503 0.29634666 -0.00065197545 -0.0821857 0.15360346 -0.011601439
0.88216287 -0.054302126 0.23284589 0.13777046 0.4412648 -0.09625077 0.9847522 0.7981991
1.2844133 -0.08941536 -0.049287245 -0.039163504 0.08214476 0.82478714 0.22208358 0.07874439
0.013924549 0.1818607 -0.061687466 -0.0014911327 0.57740027 -0.014093917 0.32945892 1.1732535
0.6285259 1.4722039 0.041727737 -0.051916566 0.13688448 1.0044117 -0.032436207 -0.07863486
